# Ultralytics YOLO 🚀, GPL-3.0 license

# Parameters
# ======================
# CT优化版（无注意力模块）
# ======================

nc: 2
depth_multiple: 0.67
width_multiple: 0.50

backbone:
  - [-1, 1, Conv, [64, 3, 2]]
  - [-1, 1, Conv, [128, 3, 2]]
  - [-1, 3, C2f, [128, True]]

  - [-1, 1, Conv, [256, 3, 2]]
  - [-1, 6, C2f, [256, True]]

  - [-1, 1, Conv, [512, 3, 2]]
  - [-1, 6, C2f, [512, True]]

  - [-1, 1, Conv, [1024, 3, 2]]
  - [-1, 3, C2f, [1024, True]]

  - [-1, 1, SPPF, [1024, 5]]

head:
  # P5 → P4
  - [-1, 1, nn.Upsample, [None, 2, 'nearest']]
  - [[-1, 6], 1, Concat, [1]]
  - [-1, 3, C2f, [512]]

  # P4 → P3
  - [-1, 1, nn.Upsample, [None, 2, 'nearest']]
  - [[-1, 4], 1, Concat, [1]]
  - [-1, 3, C2f, [256]]

  # ⭐ P2（关键）
  - [-1, 1, nn.Upsample, [None, 2, 'nearest']]
  - [[-1, 2], 1, Concat, [1]]
  - [-1, 2, C2f, [128]]

  # 回传
  - [-1, 1, Conv, [128, 3, 2]]
  - [[-1, 15], 1, Concat, [1]]
  - [-1, 3, C2f, [256]]

  - [-1, 1, Conv, [256, 3, 2]]
  - [[-1, 12], 1, Concat, [1]]
  - [-1, 3, C2f, [512]]

  - [-1, 1, Conv, [512, 3, 2]]
  - [[-1, 9], 1, Concat, [1]]
  - [-1, 3, C2f, [1024]]

  - [[18, 21, 24, 27], 1, Detect, [nc]]